UI/UI/saved_model/model.onnx (onnx, 11723 bytes, 5 tensors)

functional_8_1/output_1/Cast/ReadVariableOp:0 f4 [32, 1]
0	0x3d890e69	0.06692202
1	0x3d346310	0.044039786
2	0xbea179fe	-0.31538385
3	0x3eab994e	0.335154
4	0xbebef7bf	-0.3729839
5	0xbed35688	-0.41276956
6	0xbe97447a	-0.2954443
7	0x3d8b680c	0.06806955
8	0xbe56803e	-0.20947358
9	0x3d4cc1f8	0.04998967
10	0xbeac4986	-0.33649844
11	0xbe981887	-0.29706213
12	0x3e36bd26	0.17845592
13	0xbe4393b6	-0.19099316
14	0x3ed6fbde	0.41989034
15	0xbd7f0844	-0.062263742
16	0xbd9f4688	-0.07777125
17	0xbd50e858	-0.05100283
18	0xbe0d422d	-0.13794775
19	0x3ea6a848	0.32550263
20	0xbe912b1a	-0.28353196
21	0xbe3efb67	-0.1865059
22	0x3e83dc09	0.2575381
23	0xbd8ccbab	-0.06874784
24	0xbea27e64	-0.31737053
25	0xbc898f3d	-0.016791934
26	0xbe1baf6c	-0.15203637
27	0x3c6521e0	0.013985127
28	0xbde5e38c	-0.11225042
29	0x3d3b1237	0.045671668
30	0xbde5e79c	-0.112258166
31	0x3e435cf1	0.19078423

functional_8_1/dense_8_1/Cast/ReadVariableOp:0 f4 [64, 32]
0	0x3e17243b	0.14759915
1	0x3cf6d360	0.030130088
2	0x3cc38060	0.023864925
3	0x3e379568	0.17928088
4	0x3e2333cc	0.15937728
5	0xbe07f56c	-0.13277215
6	0x3def5d8a	0.11687763
7	0xbe1f0c9f	-0.15532158
8	0x3d982638	0.07429165
9	0x3e5735dc	0.2101664
10	0xbdbf2821	-0.09333826
11	0xbdaf7a38	-0.08568233
12	0x3ca9b3e8	0.020715669
13	0x3e7fe5ec	0.24990052
14	0xbac5f4be	-0.0015102846
15	0xbe1da440	-0.15394688
16	0x3e72ac34	0.23698503
17	0xbe27a3e0	-0.16371107
18	0x3e2eb181	0.170599
19	0xbe14c4de	-0.14528224
20	0xbd9ebdee	-0.0775107
21	0x3c9e96c7	0.019359006
22	0x3d4cd58e	0.05000835
23	0x3d5f5f50	0.054534256
24	0x3c33256a	0.010934213
25	0xbd8f616f	-0.07001006
26	0xbc0e0300	-0.008667707
27	0x3e156928	0.14590895
28	0xbd55d930	-0.05220908
29	0x3e56423a	0.20923701
30	0xbd6fcbc0	-0.05854392
31	0x3d9c6657	0.07636707
32	0xbdf14610	-0.117809415
33	0x3d925138	0.071443975
34	0x3e48d69c	0.19613117
35	0x3d000070	0.031250417
36	0xbddf5ee8	-0.10906774
37	0x3d615ea0	0.055021882
38	0x3e7940cc	0.24341124
39	0xbde1f2e8	-0.11032659
40	0xbe61905c	-0.22027725
41	0xbd4024c0	-0.046910048
42	0xbe2c9130	-0.1685226
43	0xbdf5e2b0	-0.12006128
44	0x3dff1cf0	0.12456691
45	0xbe4021bc	-0.18762869
46	0x3d8b0008	0.06787115
47	0xbcd3b360	-0.025842369
48	0x3c530980	0.012880683
49	0x3e78933c	0.24274915
50	0x3dcad710	0.09904301
51	0xbe2e6528	-0.17030776
52	0xbe7f4108	-0.24927151
53	0xbdc28860	-0.09498668
54	0x3e7eab54	0.24870044
55	0x3e0bbb2c	0.13645619
56	0xbe19ec98	-0.1503166
57	0x3e35b05c	0.17743057
58	0xbe66d1c0	-0.22540951
59	0x3e08b1b0	0.13349032
60	0x3e7da74c	0.2477085
61	0xbd731aa0	-0.059351563
62	0xbe746470	-0.23866439
63	0xbe1d1194	-0.15338737
64	0xbe31d0f1	-0.17364861
65	0xbdd2f2a8	-0.10300189
66	0xbe53c45c	-0.20680374
67	0xbe493c18	-0.1965183
68	0x3dfc1878	0.123093545
69	0x3ca40348	0.020021096
70	0x3ca61bfd	0.020277018
71	0x3cae0965	0.021244714
72	0x3e615aac	0.22007245
73	0xbe670208	-0.22559369
74	0xbd10bc25	-0.03533568
75	0xbddcafa0	-0.10775685
76	0x3e1010f0	0.14068961
77	0xbe1645b0	-0.14675021
78	0x3d8776d2	0.0661446
79	0x3d2a7743	0.041617643
80	0x3e557b00	0.20847702
81	0xbe1c4460	-0.15260458
82	0xbe830398	-0.2558868
83	0x3c60669e	0.013696341
84	0xbde2c6d1	-0.110730775
85	0x3c1de1b8	0.009636335
86	0x3e199e6f	0.15001844
87	0x3e057b0e	0.13035223
88	0x3818b572	3.6408608e-05
89	0xbe748263	-0.23877864
90	0x3d425dd0	0.047452748
91	0xbe135250	-0.14386868
92	0xbc6cac80	-0.014445424
93	0xbc739a62	-0.014868351
94	0xbe218240	-0.15772343
95	0xbe1d446e	-0.15358135
96	0xbcbceb80	-0.023061514
97	0xbe1638dc	-0.14670128
98	0x3e5405c0	0.20705318
99	0x3ddef9c8	0.10887486
100	0xbd710d80	-0.058850765
101	0x3e7d56d4	0.24740154
102	0xbe3aeb00	-0.18253708
103	0xbd163d30	-0.036679447
104	0xbe0b64d8	-0.13612688
105	0x3e427234	0.18988878
106	0xbdfd84b0	-0.12378824
107	0x3e3b63a8	0.18299735
108	0xbe739540	-0.23787403
109	0x3de2b540	0.11069727
110	0x3e5e57d4	0.21713191
111	0xbe7c8b90	-0.24662614
112	0xbd17fa90	-0.03710419
113	0xbdc74e18	-0.09731692
114	0xbe3a1d64	-0.18175274
115	0xbd0f69e0	-0.03501308
116	0x3d732f00	0.059370995
117	0x3d3f8e40	0.04676652
118	0xbe2f5f4c	-0.17126197
119	0xbe282748	-0.16421235
120	0xbe5ebf8c	-0.21752757
121	0xbbc85d80	-0.0061146617
122	0x3deb9c88	0.11504465
123	0x3c8f2f00	0.017478466
124	0xbd935d08	-0.07195479
125	0x3da93bf8	0.08263391
126	0x3e081138	0.13287818
127	0xbe4095c8	-0.18807137
128	0x3daf7fd2	0.08569302
129	0x3e6a25f0	0.22866035
130	0xbe10d939	-0.14145364
131	0x3d84bde8	0.06481534
132	0x3d7ac483	0.061222564
133	0x3d49c739	0.04926226
134	0x3e652a4e	0.22379419
135	0xbe1f512f	-0.15558313
136	0x3e56f704	0.20992666
137	0x3e3738ec	0.17892808
138	0xbe099168	-0.13434374
139	0xbe4e7b20	-0.20164156
140	0xbe00c2bd	-0.12574287
141	0x3cabca80	0.020970583
142	0x3d5e3dd1	0.05425817
143	0x3e6455fc	0.22298425
144	0x3e660d48	0.22466004
145	0x3d776b20	0.060404897
146	0x3e164d29	0.14677872
147	0x3dfab23c	0.12241027
148	0xbe0f9517	-0.14021717
149	0xbe16a1c7	-0.1471015
150	0xbda91cb3	-0.08257427
151	0xbdf32b0a	-0.118734434
152	0xbd6e4b2a	-0.05817715
153	0x3e0af934	0.13571626
154	0x3e77a9c4	0.24185854
155	0x3cf56760	0.02995652
156	0x3dee93a0	0.11649251
157	0x3d3c1f27	0.045928147
158	0x3e02cc30	0.12773204
159	0x3e396115	0.1810344
160	0x3e5747ec	0.2102353
161	0x3df06788	0.11738497
162	0x3c1bc540	0.009507477
163	0x3deb5888	0.11491495
164	0x3e3f3b70	0.18675017
165	0xbe33a00c	-0.17541522
166	0xbddb5c58	-0.107109725
167	0x3e3ac554	0.18239337
168	0x3e7442ac	0.23853558
169	0xbde99488	-0.11405283
170	0x3dbeffd0	0.09326136
171	0x3e336740	0.17519855
172	0xbe07f84c	-0.13278311
173	0x3e0c3d28	0.13695204
174	0xbe5e0300	-0.21680832
175	0xbe055a44	-0.13022715
176	0x3e67c614	0.22634155
177	0x3e6c1be0	0.23057508
178	0xbda3e990	-0.08003533
179	0x3e49dca0	0.19713068
180	0xbe6bd1d0	-0.23029256
181	0xbd010780	-0.031501293
182	0x3e6798fc	0.22616953
183	0xbe00ec34	-0.12590104
184	0x3e5a39fc	0.21311182
185	0xbe336e1c	-0.17522472
186	0x3e3f9ce0	0.18712187
187	0x3b8d3b00	0.004310012
188	0xbdb208f8	-0.08693117
189	0x3d15e1b0	0.036592185
190	0x3e0df49c	0.13862842
191	0x3da623f8	0.08112329
192	0xbe19d3c8	-0.15022194
193	0xbe4194d8	-0.18904436
194	0x3e3230b0	0.17401385
195	0x3e20a5ac	0.15688199
196	0x3d7ae690	0.061255038
197	0xbd3f3450	-0.04668075
198	0x3df30370	0.1186589
199	0x3c59e800	0.013299942
200	0x3d998630	0.07496297
201	0xbe504058	-0.20337045
202	0xbe7bd658	-0.24593484
203	0xbdbe3dc0	-0.09289122
204	0xbe7f9a10	-0.24961114
205	0x3cddf960	0.02709645
206	0x3b814680	0.003945172
207	0x3e3f37d8	0.18673646
208	0x3d61a570	0.055089414
209	0xbdc0e560	-0.0941875
210	0xbe167aa0	-0.14695215
211	0x3a1c3400	0.00059586763
212	0xbe3379b8	-0.17526901
213	0x3e3b81f0	0.18311286
214	0x3d702e20	0.05863774
215	0xbd9bcb38	-0.0760712
216	0x3dfdac58	0.123863876
217	0x3e6f1ad4	0.23350078
218	0x3e2ce2dc	0.16883415
219	0x3df5d1f0	0.12002933
220	0x3cdeffc0	0.02722156
221	0x3d335040	0.043777704
222	0xbe14d220	-0.14533281
223	0x3e03e048	0.12878525
224	0x3dd9b380	0.1062994
225	0xbcfbfa20	-0.030758917
226	0xbe597a84	-0.21238142
227	0xbb1a0a00	-0.0023504496
228	0xbe0bb378	-0.1364268
229	0xbdf78720	-0.1208632
230	0x3e7ed098	0.2488426
231	0xbc8653a0	-0.016397297
232	0xbdbd8710	-0.09254277
233	0xbd917920	-0.07103181
234	0xbe7c5f08	-0.24645627
235	0xbe56d1ec	-0.20978516
236	0xbdf81778	-0.12113851
237	0xbe66d0a4	-0.22540528
238	0xbdb22348	-0.086981356
239	0x3c231c00	0.009955406
240	0x3d192a40	0.03739381
241	0x3e1ef1f4	0.15521985
242	0xbdf6cc80	-0.12050724
243	0xbe698764	-0.22805554
244	0xbd8752f0	-0.06607616
245	0xbe722454	-0.2364667
246	0x3e424298	0.18970716
247	0x3cd8a140	0.026444077
248	0x3dcad310	0.09903538
249	0xbe1759cc	-0.14780349
250	0xbcba3740	-0.022731423
251	0xbe64f9b0	-0.22360873
252	0x3e79f16c	0.24408501
253	0x3afcd600	0.0019289851
254	0xbb5d9000	-0.0033807755
255	0xbd8e7230	-0.06955373

functional_8_1/dense_8_1/BiasAdd/ReadVariableOp:0 f4 [32]
0	0x3c06c2bd	0.00822514
1	0x00000000	0.0
2	0xbc2a6f43	-0.010402503
3	0x00000000	0.0
4	0xbc10c2c9	-0.008835503
5	0xbc1095e5	-0.0088248
6	0xbc112f6b	-0.008861403
7	0x3c07420b	0.008255492
8	0x00000000	0.0
9	0x00000000	0.0
10	0xbc00242a	-0.007821122
11	0x00000000	0.0
12	0x3c0c15e5	0.008550142
13	0x00000000	0.0
14	0x3c0de24b	0.0086599095
15	0xbc17ea62	-0.00927219
16	0x00000000	0.0
17	0x00000000	0.0
18	0xbc13490a	-0.008989582
19	0x3c0d81af	0.008636876
20	0xbc7edc76	-0.015555492
21	0xbc79fcbc	-0.0152580105
22	0x3c0d4cc8	0.008624263
23	0xbc1734b8	-0.009228878
24	0xbc5b2410	-0.013375297
25	0xbc28d2e6	-0.010304188
26	0x00000000	0.0
27	0x00000000	0.0
28	0x00000000	0.0
29	0x3c04f2e8	0.008114554
30	0x00000000	0.0
31	0x3c0c467a	0.008561725

functional_8_1/dense_7_1/Cast/ReadVariableOp:0 f4 [5, 64]
0	0x3e8a0f7e	0.26964945
1	0x3e29a14e	0.16565439
2	0x3c807ef2	0.015685532
3	0xbe590562	-0.2119346
4	0x3e4053b7	0.18781935
5	0x3d8ad9a4	0.06779793
6	0xbe27ee1c	-0.16399425
7	0xbd7eaca0	-0.062176347
8	0xbe282775	-0.16421302
9	0xbd305dd0	-0.043058217
10	0xbd6dfec8	-0.058104306
11	0xbe332f7a	-0.1749858
12	0xbe170377	-0.14747415
13	0x3e897ea7	0.2685444
14	0x3e5fe684	0.21865278
15	0xbc942dd9	-0.018088268
16	0xbd2c7990	-0.04210812
17	0xbe06b69b	-0.13155596
18	0xbe2c9968	-0.16855395
19	0x3e490712	0.19631603
20	0xbe7a81f8	-0.24463642
21	0x3d824870	0.063614726
22	0x3e09ea48	0.13468277
23	0x3e6ab06c	0.22918862
24	0xbe8c6ee5	-0.27428356
25	0x3d6a84a5	0.057255406
26	0x3d054172	0.032533117
27	0xbe2cfb45	-0.16892727
28	0xbe5ae038	-0.21374595
29	0x3de3a790	0.111159444
30	0x3e8ff3f3	0.28115806
31	0x3d9e4bc9	0.077292986
32	0xbe67dc64	-0.22642666
33	0x3e16561c	0.14681286
34	0xbd04bf8a	-0.03240923
35	0x3e962736	0.2932679
36	0x3e77db5f	0.24204777
37	0xbe05d562	-0.1306968
38	0x3e3e254c	0.18568915
39	0x3e600c48	0.21879685
40	0x3e956972	0.2918201
41	0xbdfff3bc	-0.124976605
42	0xbe945d68	-0.28977513
43	0x3e935f60	0.28783703
44	0xbe5e1294	-0.21686774
45	0xbe7820e3	-0.24231295
46	0x3ddd6704	0.10810664
47	0x3d626fc0	0.055282354
48	0xbe337842	-0.17526343
49	0x3e5a65fe	0.2132797
50	0xbcc413c9	-0.023935216
51	0xbc262c00	-0.010142326
52	0xbe7370ba	-0.2377347
53	0x3e357980	0.1772213
54	0x3e1c9972	0.1529291
55	0xbbfdb7d0	-0.0077428594
56	0x3de83884	0.113389045
57	0xbe9204b4	-0.28519213
58	0xbd9a5338	-0.07535404
59	0xbd346ba8	-0.04404798
60	0xbe6e72ec	-0.23286027
61	0x3e7f2d24	0.24919564
62	0x3e872c51	0.26400998
63	0xbd22c004	-0.0397339
64	0x3e587ae0	0.21140623
65	0xbe881076	-0.2657506
66	0x3e99dedd	0.30052844
67	0xbe4f99dc	-0.20273536
68	0x3e7cf24d	0.24701805
69	0x3e92579e	0.28582472
70	0x3dae8fac	0.08523497
71	0x3e725534	0.23665315
72	0x3d5c9226	0.053850316
73	0x3e8f5fb2	0.28002697
74	0xbe960fdf	-0.29308984
75	0x3e89bc92	0.2690168
76	0x3dc84c24	0.09780148
77	0x3e69ee9a	0.22844926
78	0xbe1353c3	-0.14387421
79	0x3d96994f	0.0735346
80	0xbd9e5528	-0.07731086
81	0xbb1957db	-0.0023398313
82	0xbe7b7952	-0.24557999
83	0xbe64cdb8	-0.223441
84	0x3e53837c	0.20655626
85	0xbdbc62dc	-0.091985434
86	0x3e72ed02	0.23723224
87	0xbe810008	-0.25195336
88	0xbe8edbe8	-0.2790215
89	0xbdc03774	-0.09385577
90	0x3e77cbdd	0.24198861
91	0x3e8e5a71	0.27803376
92	0x3e246fb6	0.1605824
93	0x3e43c21e	0.19117019
94	0xbe6c1d1f	-0.23057984
95	0x3e8cc3b8	0.27493072
96	0x3e96b850	0.29437494
97	0x3cc78490	0.024355203
98	0xbd445ffb	-0.047943097
99	0x3da3a9c4	0.079913646
100	0xbe76f6ff	-0.24117659
101	0x3e486586	0.19569978
102	0xbe95345e	-0.29141515
103	0xbbb1c280	-0.0054247975
104	0xbe3046c0	-0.17214489
105	0xbe46eafb	-0.19425575
106	0xbddebbd2	-0.10875668
107	0xbd04ea10	-0.032449782
108	0xbdf5ec2a	-0.12007935
109	0x3e87cb98	0.26522517
110	0x3e88c552	0.26713043
111	0xbc8290f0	-0.015938252
112	0xbe1ef204	-0.15522009
113	0xbe9d544e	-0.30728382
114	0xbbcbfd53	-0.006225267
115	0xbd358650	-0.044317544
116	0xbdc24e04	-0.094875365
117	0x3e0b5c61	0.13609459
118	0xbce94d7d	-0.028479332
119	0xbe1568ba	-0.14590731
120	0xbe7475b8	-0.23873031
121	0x3e22700e	0.15863058
122	0x3cd2bdc0	0.025725245
123	0xbe03d568	-0.12874377
124	0x3e27aaa0	0.16373682
125	0x3e92c49a	0.2866562
126	0x3c9acd37	0.018896682
127	0xbda42c80	-0.080163
128	0xbe6708f9	-0.22562017
129	0x3d9917a0	0.07475209
130	0x3d2ec6c4	0.042670026
131	0x3e9370cc	0.28796995
132	0xbe63e1fb	-0.22254173
133	0xbc6b9180	-0.014377952
134	0x3e9186be	0.28423113
135	0x3e398d6a	0.18120351
136	0x3e69b331	0.22822262
137	0xbe51af82	-0.20477107
138	0xbe539686	-0.20662889
139	0x3d1e9bd0	0.038722813
140	0x3e72d588	0.23714268
141	0xbd0ae046	-0.03390529
142	0x3d0edd90	0.034879267
143	0xbe76ca9c	-0.24100727
144	0x3e3101b4	0.17285806
145	0x3e8c8b35	0.27449957
146	0xbe65d2cc	-0.22443694
147	0xbe7afae0	-0.24509764
148	0xbe76d8b8	-0.24106109
149	0xbbd487c0	-0.006485909
150	0x3e8e54c0	0.27799034
151	0xbe91662f	-0.28398272
152	0x3ce5a600	0.028033257
153	0x3d1e669f	0.038672086
154	0xbe7da0dd	-0.24768396
155	0x3e910e32	0.28331143
156	0xbe76027c	-0.24024385
157	0xbe94d12f	-0.29065844
158	0x3e616bf5	0.22013839
159	0x3de0d586	0.10978226
160	0xbe223cb4	-0.15843469
161	0x3a63d600	0.0008691251
162	0xbd8089ea	-0.06276305
163	0xbe81692f	-0.2527556
164	0xbddf0222	-0.10889079
165	0xbd1c0710	-0.038092673
166	0xbd699094	-0.057022646
167	0x3e52c820	0.20584154
168	0xbe7899dd	-0.24277444
169	0x3d957f2d	0.072996475
170	0xbe712ded	-0.23552676
171	0xbe8e38db	-0.27777752
172	0xbe9584ce	-0.29202884
173	0xbd467508	-0.048451453
174	0x3d90a308	0.07062346
175	0xbe8ae528	-0.27127957
176	0x3e8dbcc8	0.2768309
177	0x3d2103cc	0.03931026
178	0x3e892c1d	0.26791468
179	0xbe6ec389	-0.23316778
180	0xbe40202f	-0.18762277
181	0x3de29c53	0.11064973
182	0xbe3c41eb	-0.1838452
183	0x3e5d855d	0.21632905
184	0x3e6f0cb4	0.2334469
185	0x3dfc5286	0.123204276
186	0xbe7ddad9	-0.24790515
187	0x3dd47978	0.10374731
188	0xbe2aec89	-0.16691794
189	0xbe3c365a	-0.18380108
190	0x3e0a8cf5	0.13530333
191	0x3de102b5	0.109868445
192	0xbccbafa6	-0.02486403
193	0xbe8f26c3	-0.2795926
194	0x3e616b1b	0.22013514
195	0xbe31eb74	-0.17374974
196	0x3e6add94	0.22936088
197	0xbc663c40	-0.014052451
198	0xbe2237b5	-0.15841563
199	0x3e706050	0.2347424
200	0xbe293544	-0.16524225
201	0x3e8c4d06	0.27402514
202	0x3e278e88	0.16362965
203	0xbdb53fe8	-0.0885008
204	0xbdee0bdc	-0.11623356
205	0xbe3705f5	-0.17873366
206	0xb9216000	-0.0001538992
207	0x3e0e0bc6	0.13871679
208	0xbd70b5c0	-0.05876708
209	0xbe8c7501	-0.27433017
210	0xbe66ab50	-0.22526288
211	0x3e5e97a7	0.21737538
212	0x3e106c10	0.14103723
213	0x3e62897c	0.22122759
214	0x3e56f151	0.20990492
215	0x3e849c42	0.25900465
216	0xbe042a19	-0.12906684
217	0x3e734b3a	0.23759165
218	0x3e5b9d3b	0.21446697
219	0x3e633981	0.22189905
220	0x3e891ae8	0.2677834
221	0xbc8fce10	-0.017554313
222	0x3e2193e8	0.15779078
223	0xbe19d1a8	-0.15021384
224	0x3e653190	0.22382188
225	0xbe805876	-0.2506749
226	0x3cb30bc4	0.021856196
227	0xbe1d1024	-0.15338188
228	0xbdeb780f	-0.11497509
229	0xbe850321	-0.2597895
230	0xbe53bba4	-0.20677048
231	0xbc61e8e0	-0.013788432
232	0x3e95a590	0.29227877
233	0x3df56ebe	0.11984013
234	0xbe7018b8	-0.2344693
235	0xbe7c88fc	-0.2466163
236	0x3d7bfd88	0.061521083
237	0x3a719600	0.0009215772
238	0x3d0e9bd0	0.034816563
239	0xbdd3650e	-0.10322009
240	0xbe2ae0b8	-0.16687286
241	0x3e6fd41a	0.23420754
242	0x3e5fec40	0.21867466
243	0xbe4e2cd8	-0.20134294
244	0x3e715374	0.23566991
245	0xbcb9824d	-0.02264514
246	0xbdd5b810	-0.10435498
247	0xbe8ca7e2	-0.27471834
248	0x3e4daf3e	0.20086381
249	0xbe534512	-0.20631817
250	0x3e05f9cc	0.13083571
251	0xbc514920	-0.012773782
252	0xbe30c2d3	-0.1726182
253	0x3e17c93e	0.14822862
254	0xbcc185f8	-0.023623452
255	0x3e67354d	0.22578926

functional_8_1/dense_7_1/BiasAdd/ReadVariableOp:0 f4 [64]
0	0xbc1f92f3	-0.009739625
1	0x00000000	0.0
2	0x3c24a4da	0.010049069
3	0x00000000	0.0
4	0x3ca7f051	0.020500334
5	0x00000000	0.0
6	0x00000000	0.0
7	0x00000000	0.0
8	0xbbf3aba1	-0.0074362312
9	0x00000000	0.0
10	0x00000000	0.0
11	0x00000000	0.0
12	0x00000000	0.0
13	0xbc817741	-0.015803935
14	0x00000000	0.0
15	0x3c64dcd5	0.013968666
16	0x00000000	0.0
17	0xbac7671d	-0.0015213225
18	0x00000000	0.0
19	0xbc356374	-0.011071075
20	0x00000000	0.0
21	0x00000000	0.0
22	0xbc164d79	-0.009173744
23	0x00000000	0.0
24	0x3c268e74	0.010165799
25	0x3c201751	0.009771184
26	0xbc49556a	-0.012288431
27	0x3c9ec81e	0.019382533
28	0x00000000	0.0
29	0x00000000	0.0
30	0x3b0e888d	0.002174887
31	0xbc6c1d94	-0.014411349
32	0x00000000	0.0
33	0x00000000	0.0
34	0xbc3ed076	-0.011646381
35	0x00000000	0.0
36	0xbc40aa83	-0.011759403
37	0x00000000	0.0
38	0x00000000	0.0
39	0x00000000	0.0
40	0x00000000	0.0
41	0xbc31e788	-0.010858424
42	0xbc3f812a	-0.01168851
43	0x00000000	0.0
44	0x00000000	0.0
45	0x00000000	0.0
46	0x00000000	0.0
47	0x00000000	0.0
48	0x00000000	0.0
49	0xbc4ef7b3	-0.012632298
50	0x3c1d2048	0.009590216
51	0x00000000	0.0
52	0x00000000	0.0
53	0x3c1dd762	0.009633871
54	0xbc9be2e9	-0.019029098
55	0xbb72dba0	-0.0037057176
56	0x00000000	0.0
57	0xbae59b97	-0.0017517683
58	0x00000000	0.0
59	0x00000000	0.0
60	0xbc3ab57d	-0.011395809
61	0x00000000	0.0
62	0xbc308f4e	-0.010776354
63	0xbc9935dc	-0.01870244
